grid search iteration: 7
neuronLayer 16 16
iterations 233
boolLSTM None
boolAdam True
boolNest True
drop 0.5
kernel None
pool None
strideC None
strideP None
momentum 0.99
decay 0.0001
learnRate 0.011
beta1 0.9
beta2 0.999
epsilon None
amsgrad False
_________________________________________________________________
Layer (type)                 Output Shape              Param #   
=================================================================
average_pooling2d_8 (Average (None, 3, 10, 1)          0         
_________________________________________________________________
flatten_8 (Flatten)          (None, 30)                0         
_________________________________________________________________
dropout_15 (Dropout)         (None, 30)                0         
_________________________________________________________________
dense_22 (Dense)             (None, 16)                496       
_________________________________________________________________
dropout_16 (Dropout)         (None, 16)                0         
_________________________________________________________________
dense_23 (Dense)             (None, 16)                272       
_________________________________________________________________
dense_24 (Dense)             (None, 1)                 17        
=================================================================
Total params: 785
Trainable params: 785
Non-trainable params: 0
_________________________________________________________________
