grid search iteration: 12
neuronLayer 16 16
iterations 219
boolLSTM None
boolAdam True
boolNest True
drop 0.5
kernel None
pool None
strideC None
strideP None
momentum 0.99
decay 0.0008724
learnRate 0.154
beta1 0.9
beta2 0.999
epsilon None
amsgrad False
_________________________________________________________________
Layer (type)                 Output Shape              Param #   
=================================================================
average_pooling2d_13 (Averag (None, 3, 10, 1)          0         
_________________________________________________________________
flatten_13 (Flatten)         (None, 30)                0         
_________________________________________________________________
dropout_25 (Dropout)         (None, 30)                0         
_________________________________________________________________
dense_37 (Dense)             (None, 16)                496       
_________________________________________________________________
dropout_26 (Dropout)         (None, 16)                0         
_________________________________________________________________
dense_38 (Dense)             (None, 16)                272       
_________________________________________________________________
dense_39 (Dense)             (None, 1)                 17        
=================================================================
Total params: 785
Trainable params: 785
Non-trainable params: 0
_________________________________________________________________
