grid search iteration: 2
neuronLayer 20 40
iterations 300
boolLSTM True
boolAdam False
boolNest True
drop 0.5
kernel 5 5 1
pool 2 2
strideC 5 5 1
strideP 2 2
momentum 0.99
decay 0.0001
learnRate 0.005
beta1 0.9
beta2 0.999
epsilon None
amsgrad False
weight for positive prediciton 3
_________________________________________________________________
Layer (type)                 Output Shape              Param #   
=================================================================
conv2d_3 (Conv2D)            (None, 24, 68, 20)        520       
_________________________________________________________________
max_pooling2d_3 (MaxPooling2 (None, 12, 34, 20)        0         
_________________________________________________________________
time_distributed_3 (TimeDist (None, 12, 680)           0         
_________________________________________________________________
lstm_3 (LSTM)                (None, 12, 40)            115360    
_________________________________________________________________
dropout_3 (Dropout)          (None, 12, 40)            0         
_________________________________________________________________
flatten_6 (Flatten)          (None, 480)               0         
_________________________________________________________________
dense_3 (Dense)              (None, 1)                 481       
=================================================================
Total params: 116,361
Trainable params: 116,361
Non-trainable params: 0
_________________________________________________________________
