grid search iteration: 4
neuronLayer 20 60
iterations 219
boolLSTM True
boolAdam True
boolNest True
drop 0.5
kernel 5 5 1
pool 2 2
strideC 5 5 1
strideP 2 2
momentum 0.99
decay 0.000942
learnRate 0.154
beta1 0.9421
beta2 0.9955
epsilon None
amsgrad False
_________________________________________________________________
Layer (type)                 Output Shape              Param #   
=================================================================
conv2d_5 (Conv2D)            (None, 24, 68, 20)        520       
_________________________________________________________________
max_pooling2d_5 (MaxPooling2 (None, 12, 34, 20)        0         
_________________________________________________________________
time_distributed_5 (TimeDist (None, 12, 680)           0         
_________________________________________________________________
lstm_5 (LSTM)                (None, 12, 60)            177840    
_________________________________________________________________
dropout_4 (Dropout)          (None, 12, 60)            0         
_________________________________________________________________
flatten_10 (Flatten)         (None, 720)               0         
_________________________________________________________________
dense_5 (Dense)              (None, 1)                 721       
=================================================================
Total params: 179,081
Trainable params: 179,081
Non-trainable params: 0
_________________________________________________________________
