grid search iteration: 15
neuronLayer 16 16
iterations 219
boolLSTM None
boolAdam True
boolNest True
drop 0.5
kernel None
pool None
strideC None
strideP None
momentum 0.99
decay 9.075e-07
learnRate 0.154
beta1 0.9
beta2 0.999
epsilon None
amsgrad False
_________________________________________________________________
Layer (type)                 Output Shape              Param #   
=================================================================
average_pooling2d_16 (Averag (None, 3, 10, 1)          0         
_________________________________________________________________
flatten_16 (Flatten)         (None, 30)                0         
_________________________________________________________________
dropout_31 (Dropout)         (None, 30)                0         
_________________________________________________________________
dense_46 (Dense)             (None, 16)                496       
_________________________________________________________________
dropout_32 (Dropout)         (None, 16)                0         
_________________________________________________________________
dense_47 (Dense)             (None, 16)                272       
_________________________________________________________________
dense_48 (Dense)             (None, 1)                 17        
=================================================================
Total params: 785
Trainable params: 785
Non-trainable params: 0
_________________________________________________________________
