grid search iteration: 4
neuronLayer 20 60
iterations 300
boolLSTM True
boolAdam True
boolNest True
drop 0.5
kernel 5 5 1
pool 2 2
strideC 5 5 1
strideP 2 2
momentum 0.99
decay 0.0001
learnRate 0.002
beta1 0.9
beta2 0.999
epsilon None
amsgrad False
weight for positive prediciton 3
_________________________________________________________________
Layer (type)                 Output Shape              Param #   
=================================================================
conv2d_25 (Conv2D)           (None, 24, 68, 20)        520       
_________________________________________________________________
max_pooling2d_25 (MaxPooling (None, 12, 34, 20)        0         
_________________________________________________________________
time_distributed_25 (TimeDis (None, 12, 680)           0         
_________________________________________________________________
lstm_25 (LSTM)               (None, 12, 60)            177840    
_________________________________________________________________
dropout_25 (Dropout)         (None, 12, 60)            0         
_________________________________________________________________
flatten_50 (Flatten)         (None, 720)               0         
_________________________________________________________________
dense_25 (Dense)             (None, 1)                 721       
=================================================================
Total params: 179,081
Trainable params: 179,081
Non-trainable params: 0
_________________________________________________________________
