grid search iteration: 11
neuronLayer 16 16
iterations 250
boolLSTM None
boolAdam True
boolNest True
drop 0.5
kernel None
pool None
strideC None
strideP None
momentum 0.99
decay 0.0001
learnRate 0.01
beta1 0.9
beta2 0.999
epsilon None
amsgrad False
_________________________________________________________________
Layer (type)                 Output Shape              Param #   
=================================================================
average_pooling2d_12 (Averag (None, 3, 10, 1)          0         
_________________________________________________________________
flatten_12 (Flatten)         (None, 30)                0         
_________________________________________________________________
dropout_23 (Dropout)         (None, 30)                0         
_________________________________________________________________
dense_34 (Dense)             (None, 16)                496       
_________________________________________________________________
dropout_24 (Dropout)         (None, 16)                0         
_________________________________________________________________
dense_35 (Dense)             (None, 16)                272       
_________________________________________________________________
dense_36 (Dense)             (None, 1)                 17        
=================================================================
Total params: 785
Trainable params: 785
Non-trainable params: 0
_________________________________________________________________
