grid search iteration: 8
neuronLayer 16 16
iterations 200
boolLSTM None
boolAdam True
boolNest True
drop 0.5
kernel None
pool None
strideC None
strideP None
momentum 0.99
decay 0.0001
learnRate 0.1
beta1 0.9
beta2 0.999
epsilon None
amsgrad False
_________________________________________________________________
Layer (type)                 Output Shape              Param #   
=================================================================
average_pooling2d_9 (Average (None, 3, 10, 1)          0         
_________________________________________________________________
flatten_9 (Flatten)          (None, 30)                0         
_________________________________________________________________
dropout_17 (Dropout)         (None, 30)                0         
_________________________________________________________________
dense_25 (Dense)             (None, 16)                496       
_________________________________________________________________
dropout_18 (Dropout)         (None, 16)                0         
_________________________________________________________________
dense_26 (Dense)             (None, 16)                272       
_________________________________________________________________
dense_27 (Dense)             (None, 1)                 17        
=================================================================
Total params: 785
Trainable params: 785
Non-trainable params: 0
_________________________________________________________________
