grid search iteration: 0
neuronLayer 20 20
iterations 300
boolLSTM True
boolAdam False
boolNest True
drop 0.5
kernel 5 5 1
pool 2 2
strideC 5 5 1
strideP 2 2
momentum 0.99
decay 0.0001
learnRate 0.005
beta1 0.9
beta2 0.999
epsilon None
amsgrad False
weight for positive prediciton 3
_________________________________________________________________
Layer (type)                 Output Shape              Param #   
=================================================================
conv2d_1 (Conv2D)            (None, 24, 68, 20)        520       
_________________________________________________________________
max_pooling2d_1 (MaxPooling2 (None, 12, 34, 20)        0         
_________________________________________________________________
time_distributed_1 (TimeDist (None, 12, 680)           0         
_________________________________________________________________
lstm_1 (LSTM)                (None, 12, 20)            56080     
_________________________________________________________________
dropout_1 (Dropout)          (None, 12, 20)            0         
_________________________________________________________________
flatten_2 (Flatten)          (None, 240)               0         
_________________________________________________________________
dense_1 (Dense)              (None, 1)                 241       
=================================================================
Total params: 56,841
Trainable params: 56,841
Non-trainable params: 0
_________________________________________________________________
