grid search iteration: 1
neuronLayer 20 30
iterations 300
boolLSTM True
boolAdam False
boolNest True
drop 0.5
kernel 5 5 1
pool 2 2
strideC 5 5 1
strideP 2 2
momentum 0.99
decay 0.0001
learnRate 0.005
beta1 0.9
beta2 0.999
epsilon None
amsgrad False
weight for positive prediciton 3
_________________________________________________________________
Layer (type)                 Output Shape              Param #   
=================================================================
conv2d_2 (Conv2D)            (None, 24, 68, 20)        520       
_________________________________________________________________
max_pooling2d_2 (MaxPooling2 (None, 12, 34, 20)        0         
_________________________________________________________________
time_distributed_2 (TimeDist (None, 12, 680)           0         
_________________________________________________________________
lstm_2 (LSTM)                (None, 12, 30)            85320     
_________________________________________________________________
dropout_2 (Dropout)          (None, 12, 30)            0         
_________________________________________________________________
flatten_4 (Flatten)          (None, 360)               0         
_________________________________________________________________
dense_2 (Dense)              (None, 1)                 361       
=================================================================
Total params: 86,201
Trainable params: 86,201
Non-trainable params: 0
_________________________________________________________________
