grid search iteration: 0
neuronLayer 16 16
iterations 213
boolLSTM None
boolAdam True
boolNest True
drop 0.26
kernel None
pool None
strideC None
strideP None
momentum 0.99
decay 1.09e-07
learnRate 0.049
beta1 0.8812
beta2 0.9375
epsilon None
amsgrad False
_________________________________________________________________
Layer (type)                 Output Shape              Param #   
=================================================================
average_pooling2d_1 (Average (None, 3, 10, 1)          0         
_________________________________________________________________
flatten_1 (Flatten)          (None, 30)                0         
_________________________________________________________________
dropout_1 (Dropout)          (None, 30)                0         
_________________________________________________________________
dense_1 (Dense)              (None, 16)                496       
_________________________________________________________________
dropout_2 (Dropout)          (None, 16)                0         
_________________________________________________________________
dense_2 (Dense)              (None, 16)                272       
_________________________________________________________________
dense_3 (Dense)              (None, 1)                 17        
=================================================================
Total params: 785
Trainable params: 785
Non-trainable params: 0
_________________________________________________________________
