grid search iteration: 4
neuronLayer 16 16
iterations 219
boolLSTM None
boolAdam True
boolNest True
drop 0.5
kernel None
pool None
strideC None
strideP None
momentum 0.99
decay 1.02e-06
learnRate 0.154
beta1 0.9
beta2 0.999
epsilon None
amsgrad False
_________________________________________________________________
Layer (type)                 Output Shape              Param #   
=================================================================
average_pooling2d_5 (Average (None, 3, 10, 1)          0         
_________________________________________________________________
flatten_5 (Flatten)          (None, 30)                0         
_________________________________________________________________
dropout_9 (Dropout)          (None, 30)                0         
_________________________________________________________________
dense_13 (Dense)             (None, 16)                496       
_________________________________________________________________
dropout_10 (Dropout)         (None, 16)                0         
_________________________________________________________________
dense_14 (Dense)             (None, 16)                272       
_________________________________________________________________
dense_15 (Dense)             (None, 1)                 17        
=================================================================
Total params: 785
Trainable params: 785
Non-trainable params: 0
_________________________________________________________________
