grid search iteration: 9
neuronLayer 16 16
iterations 219
boolLSTM None
boolAdam True
boolNest True
drop 0.5
kernel None
pool None
strideC None
strideP None
momentum 0.99
decay 1.02e-06
learnRate 0.154
beta1 0.8041
beta2 0.9989
epsilon None
amsgrad False
_________________________________________________________________
Layer (type)                 Output Shape              Param #   
=================================================================
average_pooling2d_10 (Averag (None, 3, 10, 1)          0         
_________________________________________________________________
flatten_10 (Flatten)         (None, 30)                0         
_________________________________________________________________
dropout_19 (Dropout)         (None, 30)                0         
_________________________________________________________________
dense_28 (Dense)             (None, 16)                496       
_________________________________________________________________
dropout_20 (Dropout)         (None, 16)                0         
_________________________________________________________________
dense_29 (Dense)             (None, 16)                272       
_________________________________________________________________
dense_30 (Dense)             (None, 1)                 17        
=================================================================
Total params: 785
Trainable params: 785
Non-trainable params: 0
_________________________________________________________________
