grid search iteration: 3
neuronLayer 16 16
iterations 219
boolLSTM None
boolAdam True
boolNest True
drop 0.5
kernel None
pool None
strideC None
strideP None
momentum 0.99
decay 1.02e-06
learnRate 0.154
beta1 0.8406
beta2 0.9974
epsilon None
amsgrad False
_________________________________________________________________
Layer (type)                 Output Shape              Param #   
=================================================================
average_pooling2d_4 (Average (None, 3, 10, 1)          0         
_________________________________________________________________
flatten_4 (Flatten)          (None, 30)                0         
_________________________________________________________________
dropout_7 (Dropout)          (None, 30)                0         
_________________________________________________________________
dense_10 (Dense)             (None, 16)                496       
_________________________________________________________________
dropout_8 (Dropout)          (None, 16)                0         
_________________________________________________________________
dense_11 (Dense)             (None, 16)                272       
_________________________________________________________________
dense_12 (Dense)             (None, 1)                 17        
=================================================================
Total params: 785
Trainable params: 785
Non-trainable params: 0
_________________________________________________________________
